…
WARNING:tensorflow:Using a while_loop for converting StatelessRandomUniformV2 cause there is no registered converter for this op.
WARNING:tensorflow:Using a while_loop for converting ImageProjectiveTransformV3 cause there is no registered converter for this op.
Defining the Keras Sequential model (with Batch Norm, L2, Softmax output)...
Model defined successfully with Batch Norm, L2, and Softmax output.
Model: "sequential"
_________________________________________________________________
 Layer (type)                Output Shape              Param #
=================================================================
 conv2d (Conv2D)             (None, 32, 32, 32)        896

 batch_normalization (BatchN  (None, 32, 32, 32)       128
 ormalization)

 activation (Activation)     (None, 32, 32, 32)        0

 conv2d_1 (Conv2D)           (None, 32, 32, 32)        9248

 batch_normalization_1 (Batc  (None, 32, 32, 32)       128
 hNormalization)

 activation_1 (Activation)   (None, 32, 32, 32)        0

 max_pooling2d (MaxPooling2D  (None, 16, 16, 32)       0
 )

 dropout (Dropout)           (None, 16, 16, 32)        0

 conv2d_2 (Conv2D)           (None, 16, 16, 64)        18496

 batch_normalization_2 (Batc  (None, 16, 16, 64)       256
 hNormalization)

 activation_2 (Activation)   (None, 16, 16, 64)        0

 conv2d_3 (Conv2D)           (None, 16, 16, 64)        36928

 batch_normalization_3 (Batc  (None, 16, 16, 64)       256
 hNormalization)

 activation_3 (Activation)   (None, 16, 16, 64)        0

 conv2d_4 (Conv2D)           (None, 16, 16, 64)        36928

 batch_normalization_4 (Batc  (None, 16, 16, 64)       256
 hNormalization)

 activation_4 (Activation)   (None, 16, 16, 64)        0

 max_pooling2d_1 (MaxPooling  (None, 8, 8, 64)         0
 2D)

 dropout_1 (Dropout)         (None, 8, 8, 64)          0

 conv2d_5 (Conv2D)           (None, 8, 8, 128)         73856

 batch_normalization_5 (Batc  (None, 8, 8, 128)        512
 hNormalization)

 activation_5 (Activation)   (None, 8, 8, 128)         0

 conv2d_6 (Conv2D)           (None, 8, 8, 128)         147584

 batch_normalization_6 (Batc  (None, 8, 8, 128)        512
 hNormalization)

 activation_6 (Activation)   (None, 8, 8, 128)         0

 conv2d_7 (Conv2D)           (None, 8, 8, 128)         147584

 batch_normalization_7 (Batc  (None, 8, 8, 128)        512
 hNormalization)

 activation_7 (Activation)   (None, 8, 8, 128)         0

 max_pooling2d_2 (MaxPooling  (None, 4, 4, 128)        0
 2D)

 dropout_2 (Dropout)         (None, 4, 4, 128)         0

 conv2d_8 (Conv2D)           (None, 4, 4, 256)         295168

 batch_normalization_8 (Batc  (None, 4, 4, 256)        1024
 hNormalization)

 activation_8 (Activation)   (None, 4, 4, 256)         0

 conv2d_9 (Conv2D)           (None, 4, 4, 256)         590080

 batch_normalization_9 (Batc  (None, 4, 4, 256)        1024
 hNormalization)

 activation_9 (Activation)   (None, 4, 4, 256)         0

 max_pooling2d_3 (MaxPooling  (None, 2, 2, 256)        0
 2D)

 dropout_3 (Dropout)         (None, 2, 2, 256)         0

 flatten (Flatten)           (None, 1024)              0

 dense (Dense)               (None, 2048)              2099200

 batch_normalization_10 (Bat  (None, 2048)             8192
 chNormalization)

 activation_10 (Activation)  (None, 2048)              0

 dropout_4 (Dropout)         (None, 2048)              0

 dense_1 (Dense)             (None, 1024)              2098176

 batch_normalization_11 (Bat  (None, 1024)             4096
 chNormalization)

 activation_11 (Activation)  (None, 1024)              0

 dropout_5 (Dropout)         (None, 1024)              0

 dense_2 (Dense)             (None, 100)               102500

=================================================================
Total params: 5,673,540
Trainable params: 5,665,092
Non-trainable params: 8,448
_________________________________________________________________
Epoch 1/500
2025-04-20 17:39:21.529225: I tensorflow/stream_executor/cuda/cuda_dnn.cc:384] Loaded cuDNN version 8101
2025-04-20 17:39:22.144483: W tensorflow/stream_executor/gpu/redzone_allocator.cc:314] INTERNAL: ptxas exited with non-zero error code -1, output:
…
